FASHION_MNIST_CNN.pt (torch_old, 428627 bytes, 10 tensors)

conv1.weight f4 [10, 1, 3, 3]
0	0xbd9c0d45	-0.076197185
1	0x3e955fe9	0.29174736
2	0xbf0f5f7d	-0.5600508
3	0x3f098ab1	0.5372725
4	0xbd1266e3	-0.03574265
5	0xbf0a91e0	-0.5412884
6	0x3efead9d	0.4974183
7	0xbdcad30e	-0.09903537
8	0x3cbd9273	0.023141121
9	0x3eaf5765	0.34246364
10	0x3ca2f126	0.01989038
11	0xbed9da11	-0.42549184
12	0xbc43abb7	-0.0119427955
13	0x3ee6cea3	0.45079526
14	0x3e922459	0.28543356
15	0xbf1a8895	-0.6036466
16	0x3e33a553	0.17543535
17	0x3dcf2d20	0.10116029
18	0x3e380899	0.1797203
19	0x3edf52a8	0.4361775
20	0x3f1bf26d	0.6091679
21	0xbccfd203	-0.025368696
22	0xbdc8765b	-0.097881995
23	0xbe071f38	-0.13195503
24	0xbd331bf0	-0.043727815
25	0xbde13972	-0.10997285
26	0xbf2b6e50	-0.669652
27	0xbef1d523	-0.47232923
28	0x3d51a8dc	0.051186427
29	0x3ef3509a	0.47522432
30	0xbede61d7	-0.4343402
31	0x3ee79553	0.45231113
32	0xbd066443	-0.03281046
33	0x3cd743d7	0.026277466
34	0x3e6078eb	0.21921127
35	0xbea543f7	-0.32278416
36	0xbcae5a08	-0.021283165
37	0xbd8c6e41	-0.06856967
38	0x3e405c60	0.18785238
39	0xbe0d9d1a	-0.1382946
40	0x3c1d6f10	0.009608999
41	0x3ec5ab79	0.38607386
42	0x3e3f82de	0.18702266
43	0x3e662746	0.22475919
44	0x3d3859ed	0.045007635
45	0x3e120352	0.14259079
46	0x3dfe7418	0.12424487
47	0x3d8bfb43	0.06835034
48	0x3edcaa75	0.43098798
49	0xbe0e5b64	-0.1390205
50	0xbe55d322	-0.20881322
51	0xbe00b241	-0.12567998
52	0xbecd6550	-0.40116358
53	0x3c91de98	0.017806336
54	0xbe978eca	-0.29601127
55	0xbf274265	-0.65335685
56	0xbeda7d04	-0.42673504
57	0x3f084781	0.53234106
58	0x3ef29d70	0.4738574
59	0xbe381a57	-0.17978798
60	0x3dbec2fb	0.09314533
61	0x3e074573	0.13210087
62	0x3db34fac	0.087554306
63	0xc031569c	-2.7709112
64	0xbf659c6a	-0.89691794
65	0x3e122c0e	0.14274618
66	0xbfc8cdfd	-1.5687863
67	0xbf7079f2	-0.93936074
68	0x3ebb9f61	0.36645034
69	0xbd1e0d90	-0.038587153
70	0x3edac283	0.42726526
71	0xbdd5566c	-0.10416874
72	0xbe479fff	-0.19494627
73	0xbdb3d0bf	-0.087800495
74	0xbdea8459	-0.114510246
75	0x3e9614a7	0.2931263
76	0x3d6bfcc0	0.057614088
77	0x3c0524f1	0.008126483
78	0xbe761523	-0.240315
79	0xbcc7dd88	-0.024397627
80	0x3ceb5c43	0.028730517
81	0xbedff120	-0.4373865
82	0x3da69d2a	0.081354454
83	0x3ed35ad1	0.41280225
84	0xbedb911f	-0.42884156
85	0xbe510aa3	-0.20414214
86	0x3f1f1904	0.62147546
87	0xbf01afb7	-0.50658745
88	0x3e58dbeb	0.21177642
89	0x3e8dc3bc	0.27688396

conv1.bias f4 [10]
0	0xbc778a79	-0.015108698
1	0xbe47aa17	-0.19498478
2	0xbd687069	-0.056747828
3	0x3beea022	0.007282273
4	0xbef30f03	-0.4747239
5	0xbc43b2f6	-0.011944523
6	0xbb099dc4	-0.0020998577
7	0x3e3931e7	0.18085442
8	0xbc8676a1	-0.016413989
9	0xbcd9b374	-0.026574828

conv2.weight f4 [16, 10, 3, 3]
0	0xbd713b7d	-0.058894623
1	0xbd2db1f1	-0.042406026
2	0xbcc271d0	-0.02373591
3	0xbc1ccd66	-0.009570455
4	0xbdc1ff76	-0.094725534
5	0x3d39614b	0.0452588
6	0xbd198cd1	-0.03748781
7	0xbdbde815	-0.09272782
8	0xbdcb459e	-0.09925388
9	0x3cd79f0e	0.02632096
10	0x3d750502	0.05981923
11	0x3c65da21	0.014029057
12	0xbde66ec5	-0.11251596
13	0x3cc0a104	0.023514278
14	0xbd6d316c	-0.05790846
15	0xbb0b8f65	-0.0021295187
16	0xbd38e9f4	-0.04514499
17	0xbe132c52	-0.14372376
18	0x3d194148	0.037415773
19	0xbceb7a2a	-0.028744776
20	0xbd5aec78	-0.05344817
21	0xbda76969	-0.08174402
22	0x3d03baf1	0.032160703
23	0xbd22070b	-0.039557498
24	0xbe1a20c5	-0.15051563
25	0xbdef50ff	-0.11685371
26	0xbd25d617	-0.040487375
27	0x3d5d351d	0.05400573
28	0xbe048f09	-0.12945189
29	0xbd3ef307	-0.046618488
30	0xbdda7eec	-0.1066874
31	0xbd096383	-0.033542167
32	0xbdc3bcb2	-0.09557475
33	0x3bd272ec	0.006422391
34	0xbe11c20b	-0.14234178
35	0xbda18d96	-0.078883335
36	0xbdb2a380	-0.087225914
37	0xbc4be86d	-0.012445551
38	0xbd839259	-0.06424398
39	0x3d8bb3d0	0.06821406
40	0x3d957919	0.07298488
41	0xbd6fdcd5	-0.05856021
42	0xbd09e572	-0.03366608
43	0xbe062e72	-0.13103655
44	0x3ceacd7e	0.02866244
45	0xbda5fb76	-0.08104603
46	0x3d07cc2d	0.0331537
47	0x3da11f4e	0.07867299
48	0xbdb3c4ff	-0.087778084
49	0xbb1fee14	-0.002440338
50	0xbc7a5ef9	-0.015281432
51	0xbd2f0eb2	-0.042738624
52	0x3d35874b	0.04431848
53	0x3d0d92c6	0.034563802
54	0x3bae6ec3	0.0053232624
55	0x3d0903fe	0.033451073
56	0x3abc1ef6	0.0014352489
57	0xbdf0cbbe	-0.11757611
58	0xbe0d5fb6	-0.13806042
59	0x3d45d678	0.048300236
60	0x3d308770	0.043097913
61	0xbe04d385	-0.12971313
62	0x3d1f45ed	0.038885046
63	0x3ba0b135	0.004903937
64	0x3da20e6a	0.079129055
65	0xbd2e2396	-0.042514406
66	0xbe0327b5	-0.12808116
67	0xbe018611	-0.12648799
68	0x3cf0419d	0.029328162
69	0xbde1e4f0	-0.110299945
70	0xbe0d1f9c	-0.1378159
71	0xbc50b352	-0.012738066
72	0xbc675966	-0.014120435
73	0xbd6b486b	-0.05744211
74	0xbd9291ee	-0.0715674
75	0xbd66642e	-0.056247883
76	0xbd761bc4	-0.060085073
77	0xbda3ed7d	-0.08004282
78	0xbda447c5	-0.080215015
79	0xbe03cbb3	-0.12870674
80	0xbd6446d4	-0.05573161
81	0xbd7eeeb9	-0.062239382
82	0xbd1ca25d	-0.03824078
83	0xbd64df8e	-0.05587726
84	0xbc7ffc88	-0.015624173
85	0xbdf8e98b	-0.1215392
86	0x3c6e8dec	0.014560204
87	0xbdc54e27	-0.09634047
88	0xbd8c6564	-0.06855276
89	0x3b2d4b3c	0.0026442548
90	0xbf08f4cd	-0.53498536
91	0xbea02d3e	-0.31284517
92	0x3d8db6e6	0.06919651
93	0xbf5d5768	-0.86461496
94	0xbe4eb25f	-0.2018523
95	0x3e6e004b	0.232423
96	0xbf17d5eb	-0.5931079
97	0x3d672876	0.05643507
98	0x3eb7942f	0.35855243
99	0xbd9bb45c	-0.0760276
100	0x3e17d809	0.14828505
101	0xbe0d0ba3	-0.1377397
102	0xbf06557b	-0.5247418
103	0xbe9f2dca	-0.31089622
104	0x3c4e0eef	0.012576803
105	0xbeb91259	-0.3614681
106	0xbe05f55f	-0.13081883
107	0x3eca13bd	0.39468184
108	0xbdc405b7	-0.095714025
109	0x3d8fb23f	0.070164196
110	0x3ed1b9e4	0.40962136
111	0xbf434e59	-0.76291424
112	0xbe87b085	-0.2650186
113	0x3e6be588	0.23036778
114	0x3de3b508	0.11118513
115	0x3e0dde86	0.13854417
116	0x3ce6cd35	0.028174022
117	0xbe08c711	-0.13357188
118	0x3e53ad04	0.20671469
119	0xbecaec30	-0.39633322
120	0x3ebeddbe	0.3727855
121	0xbd16f167	-0.036851313
122	0xbe3b5e6b	-0.18297736
123	0x3e30ec00	0.17277527
124	0xbdd45f9e	-0.103698
125	0xbe16317e	-0.14667317
126	0xbf0e81bf	-0.55666727
127	0xbeadebbe	-0.3396892
128	0xbda41b65	-0.080130376
129	0xbc781c9f	-0.015143543
130	0xbda5b845	-0.08091787
131	0x3e5e8899	0.21731795
132	0xbe45c697	-0.19314037
133	0x3e37e162	0.1795707
134	0x3e8b850f	0.27249953
135	0xbd3e2a3e	-0.046427004
136	0xbed37ce3	-0.41306219
137	0xbcceedb0	-0.025259823
138	0xbeb2e0e5	-0.34937206
139	0x3dca78ae	0.09886299
140	0xbe02ebc0	-0.12785244
141	0x3eb9d499	0.36295012
142	0x3d161212	0.036638327
143	0x3c813240	0.015771031
144	0xbf09b805	-0.53796417
145	0x3d60bf64	0.054870024
146	0x3e62af64	0.22137219
147	0xbec32ae3	-0.38118657
148	0x3e4d40c4	0.20044237
149	0x3dcea33e	0.1008973
150	0xbe1902bb	-0.14942448
151	0x3da85019	0.082184024
152	0x3e02a2e1	0.12757446
153	0x3e6fc943	0.23416619
154	0x3e0e5085	0.13897903
155	0xbe42a03a	-0.19006434
156	0x3f41823b	0.7558934
157	0xbe9b7488	-0.30362344
158	0xbf2ccb9c	-0.67498183
159	0xbde4aa24	-0.11165264
160	0xbee696ed	-0.45037022
161	0xbc21091a	-0.00982883
162	0xbe59eca6	-0.2128168
163	0xbda53fb7	-0.08068793
164	0x3e4fd9d6	0.20297942
165	0xbdae73e5	-0.08518199
166	0x3c19ca95	0.009386678
167	0x3cf3ed87	0.029776348
168	0x3ea9f925	0.33197895
169	0x3c9c5236	0.01908217
170	0xbd375f53	-0.044768643
171	0xbe505329	-0.20344223
172	0xbd3b7893	-0.045769285
173	0xbe7a2c5f	-0.24430989
174	0x3d9c6da0	0.07638097
175	0xbd5511d4	-0.052018955
176	0xbe2ba310	-0.16761422
177	0x3e057326	0.13032207
178	0xbe4097a2	-0.18807843
179	0xbdcb74dd	-0.09934399
180	0xbe2a58fb	-0.16635506
181	0x3cf30c14	0.029668845
182	0xbf696e53	-0.91183966
183	0x3ea7f850	0.32806635
184	0xbe5ed2a4	-0.2176004
185	0xbeee8444	-0.46585286
186	0xbde35bd8	-0.11101502
187	0x3e095aa2	0.1341348
188	0x3e78f585	0.24312408
189	0x3d00cdbb	0.0314462
190	0xbf175464	-0.59113145
191	0xbdbd4d3a	-0.092432454
192	0x3ddc1c18	0.10747546
193	0xbe570cb2	-0.21000937
194	0xbea03551	-0.31290677
195	0x3ec223b3	0.3791786
196	0xbe0b7653	-0.13619356
197	0xbe9f4277	-0.31105396
198	0x3eceaf15	0.40367952
199	0x3e02167f	0.12703894
200	0xbe782b2a	-0.24235216
201	0x3cd71f54	0.026260056
202	0xbec434ae	-0.3832144
203	0xbd90bfbb	-0.0706782
204	0xbd4b58b1	-0.04964513
205	0x3ca44650	0.020053059
206	0x3e2492e3	0.16071658
207	0x3daacad1	0.083394654
208	0xbe181d7b	-0.14854996
209	0x3eafb74c	0.34319532
210	0xbee50735	-0.4473206
211	0xbe03911d	-0.12848325
212	0x3e158e42	0.14605048
213	0xbdf5a4f7	-0.11994355
214	0xbe06c7e1	-0.13162185
215	0x3e1befe0	0.15228224
216	0x3e9cba75	0.30611005
217	0xbedb6e03	-0.4285737
218	0xbd339a2b	-0.043848198
219	0xbf2bf6af	-0.67173284
220	0x3ae92968	0.0017788829
221	0xbdeeb6d6	-0.11655967
222	0xbe90c892	-0.28278023
223	0xbd1ccde3	-0.038282286
224	0xbe9efb7b	-0.3105124
225	0x3e88ff51	0.2675729
226	0x3e8f2745	0.27959648
227	0xbe92e865	-0.28692928
228	0xbe6c430d	-0.23072453
229	0xbf9dc3f6	-1.2325428
230	0xbf1ea44f	-0.61969465
231	0xbe8e770e	-0.27825207
232	0x3dca39b5	0.09874288
233	0x3ebb47b6	0.3657815
234	0xbe8c581c	-0.27410972
235	0xbecb7df2	-0.39744526
236	0xbf455ec3	-0.7709772
237	0x3e162382	0.14661983
238	0xbe14d9bb	-0.14536183
239	0xbe7568b4	-0.23965722
240	0x3ebbb431	0.36660913
241	0x3ebb58f0	0.3659129
242	0xbdca26fd	-0.09870718
243	0xbdac74df	-0.08420729
244	0x3d9f515e	0.077791914
245	0x3d617b4c	0.055049226
246	0x3e6dde6e	0.23229381
247	0x3f1bca8c	0.60855937
248	0x3f0f97f9	0.56091267
249	0xbc2a0e83	-0.010379436
250	0xbd842f69	-0.06454355
251	0x3e06f0d8	0.13177812
252	0x3eb25b5e	0.34835333
253	0xbdab0abb	-0.08351656
254	0xbe320670	-0.17385268
255	0xbc45cb58	-0.012072407

conv2.bias f4 [16]
0	0xbc95fafa	-0.018308152
1	0x3d6e8839	0.05823538
2	0xbe436a0f	-0.19083427
3	0x3eb794c5	0.3585569
4	0xbeb9a66f	-0.3625979
5	0x3ad3988c	0.0016143485
6	0xbd5541e5	-0.052064795
7	0xbe06fb98	-0.13181913
8	0xbe560193	-0.20899038
9	0x3d076a75	0.03306051
10	0x3cab1be3	0.02088732
11	0xbe35fdba	-0.1777257
12	0xbe381f8f	-0.17980789
13	0x3e59e3ef	0.21278356
14	0x3cfda8d4	0.030964293
15	0xbb9ec0e1	-0.0048447703

layer1.weight f4 [120, 784]
0	0xbc8ba7ac	-0.017047726
1	0x3cf33b52	0.029691372
2	0x3b5d4910	0.0033765472
3	0x3c94322e	0.018090334
4	0x3d08daed	0.03341191
5	0x3c0c4d10	0.008563295
6	0x3c863c7c	0.016386263
7	0x3bee8760	0.0072793216
8	0xbcee4081	-0.029083492
9	0x3beeb8c0	0.0072852075
10	0x3bb6c530	0.005577706
11	0xbaea85a0	-0.0017892607
12	0xbd096f75	-0.03355356
13	0xbd0e7f5d	-0.03478943
14	0xbcb0c270	-0.02157709
15	0x3cf75822	0.030193392
16	0x3d11c9e7	0.03559294
17	0xbcf53f01	-0.02993727
18	0x3c63b264	0.013897512
19	0xbca3c353	-0.019990599
20	0xbd0c2d97	-0.034223165
21	0x3d0c32f7	0.03422829
22	0xbcc60be5	-0.024175594
23	0xbd03b9ae	-0.0321595
24	0xbc2e64b2	-0.010644125
25	0x3b59ee70	0.0033253692
26	0x3c010ff8	0.007877342
27	0xbc51d3d8	-0.012806855
28	0xbbfeb31c	-0.0077728163
29	0x3d025901	0.031823162
30	0xbbad0730	-0.005280398
31	0x3cad51bc	0.021157138
32	0x3bb28c88	0.0054488815
33	0xbc88a96e	-0.016682353
34	0xbd09776f	-0.033561166
35	0x3cb7e402	0.02244759
36	0xbcb1e6e0	-0.021716535
37	0xbcc1750c	-0.023615383
38	0xbad67420	-0.0016361512
39	0x3c760708	0.015016325
40	0xbd036f88	-0.032088786
41	0xbb5371d0	-0.0032263882
42	0xbcf188e8	-0.029484227
43	0x3cdb7d12	0.026793037
44	0xbd12092f	-0.03565329
45	0xba9029a0	-0.0010998733
46	0xbb840f70	-0.0040301606
47	0xbc8f716c	-0.017510138
48	0x3ce0898f	0.027409343
49	0x3b7d4196	0.0038643829
50	0xbcd84be8	-0.026403382
51	0xbd21c529	-0.039494667
52	0xbc96f725	-0.018428395
53	0x3c7d684b	0.01546676
54	0xbc6b96f1	-0.014379249
55	0xbcb05136	-0.0215231
56	0xbd304f1e	-0.043044202
57	0xbcb2771e	-0.021785315
58	0xbd216c42	-0.039409883
59	0xbcc8df3a	-0.024520505
60	0xbd740356	-0.059573494
61	0x39ccca5b	0.0003906068
62	0xbc076e68	-0.008266069
63	0x3c0ead04	0.008708242
64	0xbaa15914	-0.0012309873
65	0xbc713e69	-0.014724352
66	0xbb87463a	-0.0041282447
67	0xbc16cd4b	-0.009204219
68	0xbce3ccd2	-0.027807627
69	0xbd33d9c0	-0.043908834
70	0xbc1417e9	-0.009038904
71	0xbb754326	-0.0037424057
72	0xbd04ac91	-0.032391135
73	0xbd20f6b0	-0.03929776
74	0xbc5a4626	-0.013322389
75	0xbc9ba2be	-0.0189985
76	0xbd096e36	-0.03355237
77	0xbc6da8f5	-0.0145056145
78	0xbcc5b03e	-0.02413189
79	0xbd51b517	-0.05119809
80	0x3ce2fd15	0.02770857
81	0xbd258a96	-0.04041537
82	0xbc9f209f	-0.019424735
83	0x3a5dd510	0.000846223
84	0x3a92c91a	0.0011198849
85	0xbd1d9606	-0.03847315
86	0xbd2267d5	-0.039649803
87	0xbd0d8a5d	-0.03455578
88	0xbd467e55	-0.048460323
89	0xbc7ba55f	-0.015359252
90	0xbc0355c3	-0.008016053
91	0xbcf23377	-0.029565556
92	0xbd74ff3b	-0.05981372
93	0xbcee6d53	-0.029104864
94	0x3c031c6d	0.008002383
95	0xbd17099b	-0.036874395
96	0xbc14ae17	-0.009074709
97	0xbc700b35	-0.014651109
98	0xbce821c9	-0.028336423
99	0xbd39299e	-0.045205705
100	0xbcc8b196	-0.024498742
101	0xbcbad034	-0.022804357
102	0xbd8b452e	-0.06800304
103	0xbcfa1fc0	-0.030532718
104	0xbc102980	-0.008798957
105	0xbd280c68	-0.041027457
106	0xba2cbabc	-0.0006589105
107	0xbbb986d4	-0.0056618247
108	0xbc3b7bfb	-0.0114431335
109	0x3c595d9c	0.013266947
110	0x3bacd6ee	0.005274645
111	0xbd76bc76	-0.060238324
112	0xbd72a688	-0.059240848
113	0xbd6452f2	-0.055743165
114	0x3cb65de7	0.022261573
115	0xbb41baeb	-0.0029560875
116	0x3bbe2974	0.0058032814
117	0xbcb8abf5	-0.022542933
118	0xbab67cc9	-0.0013922687
119	0xbcf5aa7b	-0.029988518
120	0xbd20cbcb	-0.039256852
121	0x3c115e53	0.008872586
122	0xbccd249e	-0.025041874
123	0xbc7e1ad7	-0.015509329
124	0x3c8d8f82	0.017280344
125	0xbd8b8aae	-0.068135604
126	0xbca72926	-0.020405363
127	0xbc3946fe	-0.01130843
128	0xbd2546e7	-0.04035082
129	0xbd29ebc8	-0.041484624
130	0x3c876c1b	0.01653104
131	0xbd054e6a	-0.032545485
132	0xbc56fc54	-0.013121683
133	0xbd7e55cb	-0.062093537
134	0x3ceb629c	0.028733544
135	0x3ae0792b	0.0017125955
136	0xbc26e474	-0.010186303
137	0x3ce9c1a4	0.028534718
138	0xbce8b55c	-0.028406791
139	0xbcae983f	-0.021312831
140	0xbd5b719a	-0.053575136
141	0xbd8801f9	-0.06641001
142	0x3b5118d6	0.0031905673
143	0xbcac64d1	-0.021044167
144	0x3c1a5cfe	0.009421585
145	0xbd6a7ba2	-0.05724681
146	0xbd40c29d	-0.047060598
147	0x3ca46646	0.020068299
148	0x3ce95cd9	0.028486656
149	0xbce3eccb	-0.027822873
150	0xbd539db8	-0.051664084
151	0xbd2a2de7	-0.041547682
152	0xbc4ceb4a	-0.012507269
153	0xbc825944	-0.015911706
154	0xbd09c0db	-0.033631187
155	0x3a88c3b3	0.00104343
156	0xbd5eb8d5	-0.05437549
157	0xbd8549ed	-0.06508241
158	0xbce1f528	-0.02758272
159	0xbd87beb7	-0.06628173
160	0xbd7edc8e	-0.062222056
161	0xbd1c82ed	-0.038210798
162	0xbce539c6	-0.02798165
163	0xbc2c86c4	-0.0105301775
164	0xbd84ea5a	-0.064900115
165	0xbcf215af	-0.029551355
166	0xbcfad300	-0.03061819
167	0xbd18e4f1	-0.03732771
168	0xbcbc91de	-0.023018774
169	0x3c8117a8	0.01575835
170	0x3c42f7e1	0.011899919
171	0xbcff4a3a	-0.031163324
172	0xbc9305c7	-0.01794709
173	0xbce57d8f	-0.028013973
174	0x3c1204e7	0.008912302
175	0xbd282346	-0.041049264
176	0xbcc4b0eb	-0.024010142
177	0xbcd8483b	-0.02640163
178	0xbd245c22	-0.040126927
179	0xbd74f88e	-0.059807353
180	0xbc8c03ca	-0.01709165
181	0xba0266b0	-0.0004974408
182	0x3b35477e	0.002766102
183	0xbc54aea4	-0.012981091
184	0xbcc78048	-0.024353161
185	0x3ca215b9	0.019785749
186	0xbca85418	-0.020547912
187	0xbc9b4617	-0.01895432
188	0xbd189d38	-0.03725931
189	0xbcfc9249	-0.030831473
190	0xbcf93d44	-0.030424722
191	0xbceee52e	-0.029162016
192	0xbce5c89c	-0.02804976
193	0xbd030eb5	-0.031996448
194	0xbc8d9085	-0.017280826
195	0xbc3d86f5	-0.011567821
196	0xbd2b1e2c	-0.04177682
197	0xbd18fc91	-0.03735024
198	0xbd36da4f	-0.04464179
199	0xbd20a6c2	-0.039221533
200	0xbcb3e79c	-0.021961026
201	0xbd83ea0f	-0.064411275
202	0xbc958f85	-0.018256912
203	0xbd20b431	-0.039234344
204	0xbd21af5b	-0.039473873
205	0xbd0378c2	-0.032097585
206	0xbc8f5058	-0.017494366
207	0x3a858500	0.0010186732
208	0x3cb1c30e	0.021699455
209	0xbcca0490	-0.024660379
210	0xbd80852b	-0.062754
211	0xbd3b6e15	-0.04575928
212	0xbd182bc6	-0.03715112
213	0xbc1f2cbd	-0.009715256
214	0xbcb37afe	-0.021909233
215	0xbcc9506c	-0.024574481
216	0xbd1d5ce2	-0.038418658
217	0xbcc09ccb	-0.023512265
218	0xb96415be	-0.00021751874
219	0xbd90441c	-0.07044241
220	0x3c0dcb08	0.008654363
221	0x3c325ba4	0.010886107
222	0x3c8e931e	0.017404135
223	0xbd0cb0bd	-0.03434824
224	0xbb0cece4	-0.0021503503
225	0xbd785357	-0.060626354
226	0x3ca5729c	0.020196252
227	0xbc392e2a	-0.01130251
228	0x3bcc6238	0.0062372945
229	0x3ccfefbe	0.025382873
230	0xbcc1ce4c	-0.02365794
231	0xbd86e7cb	-0.0658718
232	0xbd63dca8	-0.055630356
233	0xbc65ac68	-0.014018156
234	0x3cf430ce	0.029808428
235	0x3c9dd712	0.019267593
236	0xbc80c1ae	-0.015717354
237	0xbb9cd259	-0.0047858176
238	0xbd30a9fa	-0.043130852
239	0xbd2d62c5	-0.042330522
240	0xbd1741e4	-0.036928073
241	0xba0ff8c0	-0.0005492084
242	0xbcb0790e	-0.021542098
243	0xbd7ae446	-0.061252855
244	0xbd15eb63	-0.036601435
245	0xbd15aaa0	-0.036539674
246	0xbd69c814	-0.057075575
247	0xbcd58dab	-0.02606853
248	0xbcaae1e2	-0.020859662
249	0xbc84ad72	-0.016195986
250	0xbd251de2	-0.0403117
251	0xbd2c381a	-0.04204569
252	0xbd0c3fb8	-0.034240454
253	0xbd14d735	-0.03633805
254	0xbd825513	-0.06363883
255	0xbc91c237	-0.017792804

layer1.bias f4 [120]
0	0xbd28cb8f	-0.041209754
1	0xbd59627a	-0.05307243
2	0xbb63992c	-0.0034728749
3	0xbd35762d	-0.044302154
4	0xbe2ec452	-0.17067078
5	0xbd8bb510	-0.06821644
6	0xbd5c5b17	-0.053797808
7	0xbe0cf38d	-0.13764782
8	0xbde8d91e	-0.11369537
9	0xbbdcd06e	-0.006738714
10	0x3e25baf1	0.16184594
11	0xbd2663bb	-0.040622454
12	0x3dded1df	0.108798735
13	0xbd876a08	-0.06612021
14	0xbd0c128c	-0.034197375
15	0xbdad02bf	-0.084477894
16	0x3d923480	0.0713892
17	0xbca4b161	-0.020104112
18	0xbe43ad9f	-0.191092
19	0xbd4ecd71	-0.050488893
20	0xbd3f8c2f	-0.04676455
21	0xbd915140	-0.07095575
22	0x3e2bc002	0.16772464
23	0xbd9e4b1e	-0.07729171
24	0xbc9417e8	-0.018077806
25	0x3ded14a8	0.115762055
26	0x3acd51ed	0.0015664675
27	0xbd8c7a3f	-0.06859254
28	0x3e4590ad	0.1929347
29	0xbb26d11a	-0.0025454224
30	0x3e5d58ce	0.21615908
31	0xbd9806ce	-0.07423173
32	0x3e54a747	0.20766936
33	0xbce52c85	-0.02797533
34	0x3e69e7a6	0.22842273
35	0xbd76020d	-0.06006055
36	0xbd366cb9	-0.04453728
37	0x3d7e7b78	0.062129468
38	0x3c85b188	0.016320005
39	0x3e09c0a3	0.13452391
40	0xbb1c7255	-0.0023871858
41	0xbcb17a90	-0.021664888
42	0x3dd0a18b	0.10187062
43	0xbddc8cbe	-0.10769032
44	0x3bc5a8bc	0.0060320776
45	0xbd0bd5c8	-0.034139425
46	0xbcba86cc	-0.022769354
47	0xbd3e0c33	-0.046398353
48	0xbc877d36	-0.016539197
49	0xbc6ba3fc	-0.014382359
50	0xbe53103e	-0.20611665
51	0xbe2e4473	-0.17018299
52	0x3c9249ba	0.017857421
53	0xbb689099	-0.0035486578
54	0x3cf4a4c8	0.02986373
55	0xbd8bd71e	-0.0682814
56	0xbc7623dd	-0.015023199
57	0xbdf08a25	-0.11745099
58	0xbc808c35	-0.015691856
59	0xbbf6a986	-0.007527533
60	0x3e895d7d	0.26829138
61	0xbd7fe66b	-0.062475603
62	0x3d71e4de	0.059056155
63	0x3d119198	0.03553924
64	0x3e71cd08	0.2361337
65	0x3c27feee	0.010253651
66	0x3dd6b50a	0.10483749
67	0xbc3e0862	-0.011598678
68	0xbc55675c	-0.013025131
69	0xbd4c51db	-0.04988275
70	0x3d49a439	0.04922888
71	0xbd7b035f	-0.06128251
72	0x3b9e4a61	0.004830644
73	0x3e18f23e	0.14936158
74	0xbd685b14	-0.056727484
75	0xba8f489d	-0.0010931675
76	0x3e3e2449	0.18568529
77	0xbca891c7	-0.020577325
78	0xbd265a96	-0.040613733
79	0xb9935b5d	-0.00028106096
80	0xbd0b431b	-0.033999544
81	0xbd17aeca	-0.037031926
82	0xbd5af948	-0.05346039
83	0x3c18f319	0.009335303
84	0xbd7b0e83	-0.061293136
85	0xbd256027	-0.0403749
86	0xbd18b401	-0.03728104
87	0xbd5a53c8	-0.053302556
88	0xbd1e0533	-0.038579177
89	0xbe485d4d	-0.19566841
90	0x3aa34748	0.0012457157
91	0x3e44e74c	0.19228858
92	0xbdf7b890	-0.120957494
93	0xbd91dbc2	-0.071219936
94	0xbc5f7f48	-0.013641186
95	0x3d701de0	0.05862224
96	0xbd20c56a	-0.03925077
97	0x3d68d23b	0.056841116
98	0xbd9e0775	-0.07716266
99	0xbc08dc50	-0.008353308
100	0xbd1ea187	-0.038728263
101	0x3d9c0aca	0.07619245
102	0x3e830adf	0.2559423
103	0xbe2d6603	-0.16933446
104	0xbd73c5ef	-0.059514936
105	0xbe67b3fa	-0.2262725
106	0xbd5f1a11	-0.05446822
107	0x3dff66c4	0.12470773
108	0x3e800d9a	0.25010377
109	0x3e05b081	0.13055612
110	0xbc3ac5c4	-0.01139969
111	0xbd3ccd86	-0.04609444
112	0xbb3ed6f5	-0.0029119824
113	0x3dab145c	0.083534926
114	0xbd2db38b	-0.042407554
115	0x3c496487	0.012292034
116	0xbc44fa3b	-0.01202255
117	0x3b8befae	0.0042705154
118	0x3e20eb50	0.15714765
119	0x3e1c14e9	0.15242352

layer2.weight f4 [84, 120]
0	0xbd5d9c42	-0.054104097
1	0x3da7cc3e	0.08193253
2	0x3d065fa2	0.032806046
3	0x3d6a829c	0.057253465
4	0xbd19b5b0	-0.037526786
5	0xbd206a03	-0.0391636
6	0xbdb1c289	-0.08679683
7	0x389bb9d7	7.425591e-05
8	0x3c24e678	0.010064714
9	0xbd6d9481	-0.058002952
10	0xbc8f11b9	-0.017464506
11	0x3c2c76e8	0.010526396
12	0xbde79d27	-0.11309271
13	0xbc033220	-0.008007556
14	0xbd371b2e	-0.044703655
15	0xbc359478	-0.011082761
16	0xbdd3f329	-0.103491135
17	0xbe1ff24e	-0.15619776
18	0x3c34bde1	0.011031599
19	0xbd8cd7d6	-0.06877105
20	0x3cc0e7d0	0.023548037
21	0x3d0a0506	0.033696197
22	0xbcebc834	-0.028781988
23	0xbd72f675	-0.05931707
24	0x3ba8bdbe	0.005149572
25	0xbd5b5977	-0.053552117
26	0x3d9f7034	0.07785073
27	0xbc8409e4	-0.016117997
28	0xbd392ffb	-0.045211773
29	0xbc8963f0	-0.016771287
30	0x3c8367de	0.016040739
31	0xbded03cb	-0.11572989
32	0x3cafc10d	0.021454358
33	0xbd4f4768	-0.050605208
34	0xbd80e1c8	-0.06293064
35	0x3db51cb0	0.08843362
36	0xbd9fbb81	-0.077994354
37	0xbc80421d	-0.015656525
38	0x3d9a0eb7	0.07522338
39	0xbe1670a5	-0.14691408
40	0xbb8e9900	-0.004351735
41	0xbdd86b83	-0.10567381
42	0xbd980eb2	-0.07424678
43	0xbe451964	-0.19247967
44	0x3daea7a4	0.08528069
45	0xbd7e00e7	-0.06201258
46	0xbcb107cc	-0.021610163
47	0xbd0fba66	-0.035089873
48	0xbdf264e7	-0.11835652
49	0x3cae71b7	0.021294458
50	0x3da6c9ae	0.08143936
51	0xbd85e51d	-0.065378405
52	0xbcf06950	-0.029347092
53	0x3d9c4208	0.07629782
54	0xbd20045f	-0.03906667
55	0x3d098676	0.033575498
56	0x3c42d1ad	0.011890811
57	0xbb124f63	-0.002232515
58	0x39377c00	0.00017498434
59	0xbd17f2b2	-0.037096687
60	0xbdb08495	-0.08619038
61	0xbd2afffe	-0.04174804
62	0x3cc48e7a	0.02399372
63	0xbb134951	-0.002247412
64	0xbe15ff53	-0.1464818
65	0xbd825c06	-0.06365208
66	0xbdc6e9a4	-0.09712532
67	0x3d901aa0	0.07036328
68	0xbde28233	-0.1105999
69	0xbc1da8e8	-0.00962279
70	0x3bdabfff	0.0066757197
71	0x3d188357	0.03723463
72	0xbd1b625d	-0.037935603
73	0xbd564749	-0.052314077
74	0xbda89ba1	-0.08232809
75	0x3dba080a	0.090835646
76	0xbde1cd50	-0.110254884
77	0xbd046e97	-0.03233203
78	0x3d91adac	0.071132034
79	0xbd42183e	-0.0473864
80	0x3d6204c4	0.055180326
81	0xbd82fe90	-0.0639621
82	0x3cfcb5c4	0.030848391
83	0xbd820273	-0.063481234
84	0xbbfe62ad	-0.007763228
85	0xbd8f362b	-0.069927536
86	0xbc7cdd33	-0.015433597
87	0x3cff48e4	0.031162687
88	0xbd838197	-0.06421202
89	0xbdc45718	-0.09586924
90	0x3d01ef4e	0.03172236
91	0x3cb3a817	0.021930737
92	0xbd532ae3	-0.05155457
93	0xbd381a0e	-0.044946723
94	0xbc5839a4	-0.013197336
95	0xbd537fbb	-0.051635485
96	0x3caf6ca1	0.021414103
97	0xbd863e26	-0.065548226
98	0xbddd5431	-0.10807074
99	0x3b94b65a	0.0045383396
100	0xbdc0b02d	-0.09408603
101	0xbd52fcc4	-0.051510587
102	0x3c8ff3aa	0.017572243
103	0xbdeb7e98	-0.11498755
104	0xbb98df2b	-0.0046652756
105	0xbd77d759	-0.060508106
106	0x3c06a468	0.008217908
107	0xbd861e33	-0.06548729
108	0xbc83d5bf	-0.016093133
109	0x3b633fa2	0.003467538
110	0x3d65483a	0.055977084
111	0xbd4d9715	-0.05019291
112	0xbccd27dd	-0.025043422
113	0xbdfe032b	-0.12402948
114	0x3d9fc69b	0.07801553
115	0xbd72776c	-0.05919592
116	0xbd6e03a2	-0.058108933
117	0x3b361043	0.0027780689
118	0xbe1f4e73	-0.1555727
119	0xbdf61d1f	-0.12017273
120	0x3d803bda	0.06261416
121	0xbd6ce991	-0.057839934
122	0xbdb660f1	-0.08905209
123	0xbd992000	-0.07476807
124	0x3e170cff	0.14751051
125	0x3d06dc77	0.032925095
126	0x3ab439e8	0.0013750168
127	0x3d85674c	0.06513843
128	0x3e1c7475	0.152788
129	0xbd8ef194	-0.06979671
130	0xbe4b8840	-0.19876194
131	0xbc4c9f08	-0.012489088
132	0xbe384e13	-0.17998533
133	0xbd911227	-0.070835404
134	0xbc47c24f	-0.012192323
135	0x3eb07108	0.34461236
136	0x3d8e1956	0.06938426
137	0xbe776cdc	-0.2416262
138	0x3e95cf9a	0.2925995
139	0xbd9ff977	-0.078112535
140	0xbcea59d9	-0.028607296
141	0xbd3873aa	-0.04503218
142	0xbea118b6	-0.31464165
143	0x3bcb5373	0.0062050163
144	0xbe4aa8f1	-0.19791009
145	0xbca064cb	-0.019579312
146	0x3b40434f	0.0029336994
147	0x3d424f97	0.047439184
148	0x3de0e6fa	0.10981555
149	0x3d37f904	0.044915214
150	0xbe647761	-0.22311164
151	0x3e235f73	0.1595438
152	0x3d46c60f	0.048528727
153	0xbec212f0	-0.37905073
154	0x3cbf51af	0.02335438
155	0x3d1ae35a	0.037814476
156	0x3d5495b9	0.0519006
157	0xbf277300	-0.6540985
158	0xbddbf8de	-0.10740827
159	0x3e5bacc9	0.21452631
160	0xbd0d58f9	-0.03450868
161	0xbe9b739b	-0.30361637
162	0xbe354ca1	-0.17705013
163	0x3c8ef058	0.01744859
164	0x3d8a8bfe	0.06764983
165	0xbcb5c6c6	-0.02218951
166	0x3d9c7f9f	0.07641529
167	0x3db17355	0.08664576
168	0x3dca83c7	0.09888416
169	0xbd23349b	-0.03984509
170	0x3d24613b	0.04013179
171	0x3e03a586	0.12856111
172	0x3b256adf	0.0025240702
173	0x3a84462d	0.0010091715
174	0xbe8a76e1	-0.27043822
175	0x3bd5c2c7	0.0065234634
176	0x3d89bffb	0.067260705
177	0x3ed91aec	0.42403352
178	0x3d300173	0.042970132
179	0x3d936eeb	0.0719889
180	0xbd877b35	-0.06615297
181	0xbd73d0be	-0.059525244
182	0xbe31ffae	-0.1738269
183	0x3cca9168	0.024727538
184	0xbe48a11b	-0.19592707
185	0x3ad5ab99	0.001630175
186	0x3ed416db	0.41423687
187	0xbd15b70b	-0.036551517
188	0x3c89ab0f	0.0168052
189	0x3ce32605	0.02772809
190	0xbe338644	-0.17531687
191	0xbe03cefc	-0.12871927
192	0xbdc08979	-0.09401221
193	0xbd81e35c	-0.063421935
194	0x3d5f5af2	0.05453009
195	0x3d8d87bb	0.06910654
196	0xbe624583	-0.22096829
197	0xbc56b7f7	-0.013105384
198	0x3d1f9cbb	0.03896783
199	0xbd272abc	-0.04081224
200	0xbd8c681a	-0.06855793
201	0xbd682871	-0.056679193
202	0xbd148c62	-0.036266692
203	0xbd82ef13	-0.06393256
204	0xbe37a50e	-0.17934057
205	0xbda0440e	-0.078254804
206	0x3abc6f39	0.0014376409
207	0x3b0456c1	0.002019331
208	0x3c2295d3	0.009923416
209	0x3d8b3d11	0.06798757
210	0xbd310e67	-0.043226626
211	0x3e082922	0.13296941
212	0x3e3882bb	0.1801862
213	0x3d8204dd	0.06348584
214	0xbc9819db	-0.018567016
215	0xbec421a3	-0.38306913
216	0x3b764297	0.0037576312
217	0x3c7730fa	0.0150873605
218	0xbe84a48a	-0.25906783
219	0x3d0142c6	0.03155782
220	0x3d8c0856	0.068375275
221	0x3d28123d	0.04103302
222	0xbea42484	-0.3205911
223	0x3c72b79c	0.014814284
224	0x3dc55e9b	0.09637185
225	0xbdd1234e	-0.10211812
226	0x3c67e8a6	0.014154589
227	0xbf266547	-0.64998287
228	0x3e6bb84c	0.23019522
229	0xbea9dbc4	-0.3317548
230	0xbbf58cb5	-0.00749358
231	0xbe85b278	-0.26112723
232	0xbd8f4dda	-0.06997271
233	0xbe952dff	-0.29136655
234	0xbc46edb2	-0.012141632
235	0xbca1fe52	-0.01977459
236	0x3c20571a	0.009786392
237	0xbd1fadec	-0.038984224
238	0xbb83c3b4	-0.0040211324
239	0x3e8023a3	0.2502719
240	0x3c0a3674	0.008435834
241	0xbd7bd7f7	-0.061485257
242	0xbd3c164d	-0.045919705
243	0x3ca8dbb0	0.020612568
244	0x3d928ba3	0.0715554
245	0xbcb5f305	-0.022210607
246	0x3d5b06f0	0.053473413
247	0x3ebd41b8	0.36964202
248	0x3bf2119c	0.007387353
249	0xbcf7a4e6	-0.030229997
250	0xbf01c5a3	-0.50692195
251	0x3d6f5434	0.05842991
252	0xbe178b55	-0.14799245
253	0xbc34bebb	-0.011031802
254	0xbdb134f4	-0.08652678
255	0xbe548a18	-0.20755804

layer2.bias f4 [84]
0	0xbe0920f2	-0.13391474
1	0xbcaf9e8c	-0.021437906
2	0x3df07e26	0.11742811
3	0xbd9ea8aa	-0.07747014
4	0xbdafde01	-0.08587266
5	0xbd963478	-0.07334226
6	0xbe2ff5db	-0.1718363
7	0xbe2f4fcd	-0.17120285
8	0x3d5b603b	0.05355857
9	0x3e778117	0.24170338
10	0x3cc3c208	0.023896232
11	0x3e269eee	0.16271564
12	0xbd2576c0	-0.040396452
13	0xbdab1819	-0.08354206
14	0xbe801341	-0.2501469
15	0xbe658af6	-0.2241629
16	0x3ebab8b6	0.36469048
17	0x3db54241	0.088505276
18	0x3db865ac	0.09003767
19	0xbec0dcfd	-0.376686
20	0x3e0dc335	0.13843997
21	0xbea673e4	-0.32510293
22	0xbd9e3f1e	-0.077268824
23	0xbeb54703	-0.3540574
24	0xbdc49b86	-0.09599976
25	0x3e140912	0.14456585
26	0xbe49e7b7	-0.19717298
27	0xbe181435	-0.14851458
28	0x3edd1650	0.43181086
29	0x3cd65f69	0.026168542
30	0xbdaa4ec2	-0.08315803
31	0xbd72e3c3	-0.05929924
32	0xbe4115d1	-0.18855979
33	0x3dc5710c	0.096407026
34	0x3eb9d178	0.36292624
35	0x3ebca609	0.36845425
36	0xbdf47c58	-0.11937779
37	0x3e38c6c3	0.18044572
38	0x3dc9b6d8	0.09849328
39	0xbdaf1f7b	-0.08550926
40	0x3d582bf4	0.052776292
41	0xbc484d7c	-0.012225505
42	0x3c348c37	0.011019758
43	0x3e8f92d8	0.2804172
44	0xbdfd2ec3	-0.12362435
45	0x3e54676b	0.20742576
46	0xbdd745ef	-0.10511386
47	0x3d374cda	0.044751026
48	0x3bee06f2	0.0072640115
49	0xbd917f9a	-0.07104416
50	0x3e2325b0	0.15932345
51	0x3b224b16	0.0024763993
52	0xbd6e2b5e	-0.058146827
53	0x3d90f1f7	0.07077401
54	0x3e016cc6	0.1263915
55	0x3d0628f5	0.032753903
56	0x3d2fab75	0.042888124
57	0xbe029d56	-0.12755331
58	0xbb3f6e0b	-0.0029209878
59	0xbdc101ec	-0.09424195
60	0xbd99e97f	-0.07515239
61	0x3dc5b33d	0.096533276
62	0xbec0bd01	-0.376442
63	0xbe5317fd	-0.2061462
64	0x3df8f788	0.12156588
65	0xbd6ad7be	-0.057334654
66	0x3d83ec63	0.064415716
67	0xbd2e421e	-0.042543523
68	0x3df3610c	0.118837446
69	0xbe6c8cba	-0.23100558
70	0x3e3e22be	0.1856794
71	0xbe4b1188	-0.19830906
72	0xbdad9b55	-0.08476893
73	0x3d3c37d0	0.045951664
74	0xbdb0175d	-0.08598206
75	0xbd2d3e76	-0.042295896
76	0xbec0a712	-0.37627465
77	0x3dd3bfad	0.10339294
78	0xbcf4be03	-0.02987576
79	0xbcbe53b1	-0.023233267
80	0x3e827fab	0.25488028
81	0x3e8c1520	0.27359867
82	0xbe68e6fd	-0.22744365
83	0x3ec4f5b7	0.38468716

layer3.weight f4 [10, 84]
0	0xbe0da18b	-0.13831155
1	0xbe58e410	-0.21180749
2	0xbeb97de7	-0.36228868
3	0xbe9f8302	-0.3115464
4	0x3e2da252	0.16956452
5	0x3cddd56e	0.02707931
6	0xbe1d1dfc	-0.1534347
7	0xbe90c346	-0.28273982
8	0x3e7ed419	0.24885596
9	0xbe011c73	-0.12608509
10	0x3c4ebbf2	0.012618052
11	0xbd4f27be	-0.05057501
12	0xbcf7d250	-0.030251652
13	0xbe5f8220	-0.21826982
14	0xbe9252bd	-0.2857875
15	0xbe3e7c21	-0.18602039
16	0x3d6bab3e	0.057536356
17	0x3dbdce39	0.092678495
18	0xbeb92275	-0.361591
19	0xbe931810	-0.28729296
20	0x3b8ee848	0.004361186
21	0xbe0b0292	-0.13575199
22	0x3c6006a3	0.013673457
23	0xbdb91a15	-0.09038178
24	0xbcfa4ede	-0.030555185
25	0x3e27860d	0.1635973
26	0xbef8b435	-0.48574987
27	0xbe12302d	-0.1427619
28	0x3c9d60f6	0.019211274
29	0x3d9033fe	0.07041167
30	0xbf01ae3b	-0.5065648
31	0x3e26a925	0.16275461
32	0xbdc49936	-0.09599535
33	0xbf0c47db	-0.5479714
34	0xbe8c5da2	-0.27415186
35	0xbe820031	-0.2539077
36	0xbe11176c	-0.14169091
37	0xbe67d8d6	-0.2264131
38	0xbea27c61	-0.3173552
39	0xbec51b68	-0.38497472
40	0x3dd26026	0.10272245
41	0x3dccde07	0.10003286
42	0xbf0923b9	-0.53570133
43	0x3dae50eb	0.08511528
44	0xbe3b13aa	-0.1826922
45	0x3d835e86	0.06414513
46	0xbde46572	-0.11152162
47	0x3e0cf001	0.13763429
48	0xbf3084a8	-0.6895242
49	0x3d62a7b7	0.055335727
50	0xbee8cfeb	-0.4547113
51	0xbf3856b9	-0.7200733
52	0xbd8354d2	-0.064126626
53	0x3d56d075	0.052444894
54	0x3e24b7e7	0.16085778
55	0xbdd17525	-0.10227422
56	0x3e4f5ef8	0.20251071
57	0x3d7f1d12	0.062283583
58	0xbe1f036a	-0.15528646
59	0xbe67a6f9	-0.22622289
60	0xbbdaf4f0	-0.006682031
61	0x3d2155e3	0.03938855
62	0xbef65b3c	-0.4811648
63	0xbf33e622	-0.7027303
64	0xbf563ce3	-0.83686656
65	0xbe27808d	-0.16357632
66	0xbe6a417e	-0.22876546
67	0xbea67253	-0.32509097
68	0x3e02d582	0.1277676
69	0xbce832ee	-0.028344598
70	0xbf07ac76	-0.5299753
71	0x3d94c383	0.072638534
72	0xbec3337c	-0.38125217
73	0xbefc0edf	-0.49230096
74	0xbe824a5b	-0.25447354
75	0x3e2536b2	0.16134146
76	0xbea94df6	-0.33067292
77	0x3d047f13	0.03234775
78	0x3e3c8ff5	0.1841429
79	0xbe5e0d86	-0.21684846
80	0xbf299681	-0.66245276
81	0xbd59e6e7	-0.05319872
82	0x3e39a7bf	0.18130396
83	0xbe8abd70	-0.27097654
84	0x3ca810ab	0.02051576
85	0xbe71532e	-0.23566887
86	0x3e10201c	0.14074749
87	0x3db6c253	0.08923783
88	0xbe2bce84	-0.16777998
89	0xbe7f8990	-0.2495482
90	0xbce5ce5e	-0.028052505
91	0x3d735b6a	0.05941335
92	0xbefc09a8	-0.49226117
93	0x3e1e6418	0.1546787
94	0x3d68aafb	0.056803685
95	0x3d683b90	0.05669743
96	0xbec36a30	-0.38166952
97	0xbe1767fb	-0.14785759
98	0xbee542a1	-0.44777396
99	0x3eec07fe	0.46099848
100	0xbfc0db91	-1.5067006
101	0xbe7bf567	-0.24605332
102	0xbf079ea5	-0.5297645
103	0xbf112fb4	-0.56713414
104	0xbe2c8eca	-0.16851345
105	0xbeef440b	-0.467316
106	0x3e30bc9d	0.1725945
107	0xbf39f693	-0.7264187
108	0xbe4ec83c	-0.20193571
109	0xbd1109da	-0.035409786
110	0xbe5b0b79	-0.21391095
111	0x3ebbea44	0.36702168
112	0xbee189bc	-0.44050395
113	0xbe8a6d89	-0.27036694
114	0xbe2fde6d	-0.17174692
115	0xbbc415bc	-0.0059840363
116	0xbe0cf150	-0.13763928
117	0x3ee8b9d7	0.45454285
118	0x3e2b69b7	0.16739546
119	0xbcf5dafb	-0.030011645
120	0xbd73b3c3	-0.059497606
121	0x3e4ecbce	0.20194933
122	0x3db9c73c	0.09071204
123	0xbe9c0a23	-0.30476484
124	0xbf3b05d6	-0.7305578
125	0x3db35ff1	0.08758534
126	0xbeda7d6a	-0.42673808
127	0xbf6dd3b7	-0.92901176
128	0xbf239598	-0.63900137
129	0xbf09030b	-0.5352027
130	0xbe053710	-0.13009286
131	0xbeec8282	-0.4619332
132	0xbf5ff2c5	-0.8747981
133	0xbda43a4d	-0.080189325
134	0xb9df6cd0	-0.00042614946
135	0xbd8bf315	-0.068334736
136	0xbe352b0c	-0.17692202
137	0xbf3ec220	-0.7451496
138	0xbdeefdc3	-0.11669495
139	0x3e8d6135	0.27613226
140	0xbda2544b	-0.07926234
141	0xbf0ddddc	-0.55416656
142	0xbe1122a1	-0.14173366
143	0x3e88e460	0.26736736
144	0xbd179304	-0.03700544
145	0xbf44810d	-0.76759416
146	0x3d9ade20	0.07561898
147	0x3eaaea43	0.33381853
148	0xbeeb3b66	-0.45943755
149	0x3ed60382	0.4179955
150	0xbe61339f	-0.21992348
151	0x3dedbb62	0.11608006
152	0xbec115bf	-0.37711903
153	0xbe0bac81	-0.13640024
154	0xbf5944fb	-0.8487088
155	0xbfa9dafa	-1.3269951
156	0xbf11c510	-0.5694132
157	0xbf32d6f9	-0.6985927
158	0xbf9efb99	-1.2420532
159	0xbecc9f5f	-0.3996534
160	0xbe12939d	-0.14314122
161	0xbf49e181	-0.78859717
162	0x3d064198	0.0327774
163	0x3eb27c5d	0.34860507
164	0xbf3d38b8	-0.7391467
165	0xbf96d48d	-1.1783615
166	0xbee6ba4d	-0.4506401
167	0xbeb19aec	-0.3468851
168	0xbdb92230	-0.09039724
169	0x3e10eba4	0.1415239
170	0xbd6baa8f	-0.057535704
171	0xbe177e81	-0.14794351
172	0xbdbe836d	-0.09302411
173	0xbed7c55a	-0.42142755
174	0xbd99361f	-0.07481026
175	0x3dabce85	0.08389
176	0x3e250eea	0.1611897
177	0xbd9610c1	-0.07327414
178	0xbeb7ba2b	-0.35884222
179	0xbe2fd0c0	-0.17169476
180	0xbe84158a	-0.25797683
181	0xbe77414a	-0.24146
182	0xbe5920bb	-0.21203892
183	0xbea55a03	-0.32295236
184	0x3e2d0019	0.16894569
185	0xbe46fd2d	-0.19432516
186	0xbe72dad2	-0.23716286
187	0x3d588a75	0.052866418
188	0x3be7017f	0.007049739
189	0xbf0d6eb9	-0.55247074
190	0xbe894773	-0.26812324
191	0xbe3c4473	-0.18385486
192	0x3c1c0ebb	0.009524996
193	0xbe89b0e8	-0.2689278
194	0xbe1c1209	-0.15241255
195	0xbe906676	-0.28203171
196	0x3e1ebc7c	0.15501589
197	0xbe2f0b88	-0.17094243
198	0x3c2cd257	0.010548196
199	0x3dc9df46	0.09857039
200	0xbcb4fe50	-0.022093922
201	0xbd79b643	-0.060964834
202	0xbe98455f	-0.29740426
203	0xbd97c0f6	-0.07409851
204	0xbe4f31ed	-0.20233889
205	0x3d243d62	0.0400976
206	0x3e3e4631	0.18581463
207	0x3b9f2865	0.0048571103
208	0xbe776afe	-0.24161908
209	0xbf0499ff	-0.5179748
210	0x3da07d14	0.07836357
211	0x3e532ee8	0.20623362
212	0xbe3d45d0	-0.18483663
213	0xbe67f339	-0.22651376
214	0xbdb27cc7	-0.08715206
215	0x3e2fa016	0.17150912
216	0xbf813f82	-1.0097506
217	0xbe8252f9	-0.25453928
218	0xbef1fdaf	-0.47263858
219	0xbea8abf1	-0.3294368
220	0xbdfae5c8	-0.122508585
221	0xbe807f4b	-0.25097117
222	0xbf04d8a4	-0.5189307
223	0x3e125316	0.14289507
224	0xbef51555	-0.47867838
225	0x3e0d288e	0.13785002
226	0xbde2f129	-0.11081154
227	0xbee19164	-0.44056237
228	0xbd83e623	-0.064403795
229	0x3e1f8906	0.15579614
230	0xbc8b6a79	-0.017018544
231	0xbf1abb72	-0.6044227
232	0xbec1408d	-0.3774456
233	0x3e01dac8	0.12681115
234	0xbf1a43ea	-0.6025988
235	0xbe6728a9	-0.22574104
236	0x3e26b879	0.16281308
237	0xbe9f94f8	-0.31168342
238	0xbe9c099a	-0.30476075
239	0xbf3a7da6	-0.72847974
240	0xbedb3e41	-0.42820933
241	0xbea800c4	-0.32813084
242	0xbe84b533	-0.25919494
243	0xbebff16d	-0.3748888
244	0xbe3573a7	-0.17719899
245	0x3dd3ac41	0.10335589
246	0xbf04a0a0	-0.51807594
247	0xbebf55bc	-0.37370098
248	0x3df197e4	0.11796549
249	0x3e3754ad	0.17903395
250	0xbe3f91d6	-0.18707976
251	0xbedd7fc5	-0.43261543
252	0xbd96abdc	-0.07356998
253	0xbf082119	-0.53175503
254	0xbe9d82c4	-0.3076383
255	0xbe233707	-0.1593896

layer3.bias f4 [10]
0	0xbe708fd2	-0.23492363
1	0xbe8d6822	-0.2761851
2	0x3d890803	0.06690981
3	0x3e66760a	0.22505966
4	0xbe06ca63	-0.13163142
5	0xbe3fdfe0	-0.18737745
6	0x3e5827f2	0.21108988
7	0x3ded2a25	0.11580304
8	0xbdaf321b	-0.08554479
9	0xbe6264b8	-0.22108734
